data.pth (torch, 17578 bytes, 6 tensors)

l1.weight f4 [8, 264]
-0.57585126 -0.33591747 0.56013376 0.6583278 0.8250374 0.8041407 -1.6185613 1.3521056
1.7357576 0.0824338 0.40178633 -0.17148763 -0.49282128 0.23002519 0.08603088 -0.71029043
-0.10224599 -0.25780472 -1.187394 1.2402295 0.10894823 -0.1499892 1.1915027 2.5945382
0.3947336 -0.3299621 -0.051229287 -0.6364582 0.92435354 -0.20312528 0.40569824 -0.71550685
-0.33736542 0.41961426 -0.3032478 -0.16848445 0.77163076 -0.078960136 0.8142943 -0.08493044
-0.43025044 1.9715458 0.85925496 1.2286152 0.09153368 0.59762937 -0.6598719 -0.42022422
0.81781226 0.25481993 2.3759298 1.1804475 -0.0011258943 2.0879924 2.4649854 0.36476472
-1.1956009 2.1153886 1.3905362 1.6313851 1.7431768 0.33997816 0.022457743 -0.5978161
-1.3098404 2.2447915 0.5972865 1.1496775 -0.17692934 1.2623945 0.37727103 -0.76279926
1.9277327 2.5583346 0.378116 0.7935459 1.488209 1.3594291 -0.34765878 0.8114261
0.80486655 -1.3187388 -0.1368567 -0.48828366 -0.2294593 0.8467486 1.8869692 -0.14214407
-0.48606038 0.52787197 -0.45190087 2.9768326 0.4976714 0.6503554 0.818063 0.6149205
0.84617656 0.34526327 1.4053591 -0.23542953 -0.004466663 0.16970445 0.73759526 -1.285358
0.4658076 3.5387433 -0.5496721 0.11707517 -0.21643242 0.24560685 0.17782615 0.26719898
1.6349965 0.29857722 0.20661326 0.31535754 -0.015250912 0.8379691 0.99201894 0.8690837
-0.1164326 -0.87426454 0.49021146 1.9272331 2.389717 0.48255455 0.55967766 0.63229
0.91551584 0.32495382 0.89513344 -0.54458255 -0.18084577 -0.07995599 1.0567114 0.20432621
0.08482344 0.62091184 -1.8258188 -0.9864836 -0.005238534 -0.3388772 1.5242076 0.057104394
1.5025167 -0.2920283 -0.54537976 0.91477764 1.1056969 0.8835147 -1.1979035 0.8308317
-0.1752798 -0.43402255 0.38945973 -0.2305573 3.1079707 0.7380145 -0.48697937 -1.2719268
-0.4175897 -0.48689416 0.28325057 0.6598846 0.46166366 -0.48791674 -0.48689407 -0.16439877
1.0504547 -0.11090011 2.1094103 -0.27729964 -0.20244685 3.22205 -0.58751893 0.4373569
0.5995261 -0.9410771 -0.1796633 2.527531 0.58738637 0.9183283 0.40062413 0.59281695
0.7322115 1.3214054 -0.16055147 -1.2982253 -1.7037728 -0.12342135 0.77903247 3.6072123
0.06935624 -1.5867562 -0.13462895 1.4645294 -0.2689122 0.087478 -0.45447093 0.7248506
3.0001848 -0.040226784 0.5187733 0.3906443 -0.68614644 2.7881422 -1.7727889 0.27358404
-1.3231777 -0.97741383 2.0586524 0.63042593 -1.0051365 0.9714053 -0.015685258 -0.18823625
-0.097349964 0.13722531 1.8818331 1.4163553 -0.21529606 -0.20085654 0.23480015 -0.09126604
-0.588913 0.15845303 -0.6178514 0.5952424 -0.32484442 -0.30045575 0.8535092 -0.05559912
0.58798337 0.05374435 0.5272176 2.3959641 0.89229316 0.2702969 -1.3634448 2.0781856
-0.9294398 -1.4227089 0.62126845 0.22735536 -0.6641935 0.14626025 -0.2551506 0.6097079
-0.04345401 2.6165855 -1.2342111 -0.91017187 -1.3774577 0.40963313 0.6907528 -0.013003012
00000000: fd6a 13bf 60fd abbe ed64 0f3f 2c88 283f
00000010: a735 533f 2adc 4d3f 042d cfbf cc11 ad3f
00000020: 4e2d de3f 0dd3 a83d f0b6 cd3e 749a 2fbe
00000030: 1253 fcbe b98b 6b3e f530 b03d 98d5 35bf
00000040: 5866 d1bd fbfe 83be 87fc 97bf d7bf 9e3f
00000050: 4020 df3d c596 19be 2983 983f ea0c 2640
00000060: 861a ca3e cbf0 a8be cdd5 51bd edee 22bf
00000070: 6fa2 6c3f 1300 50be aeb7 cf3e 752b 37bf
00000080: 29bb acbe aed7 d63e 4c43 9bbe 3087 2cbe
00000090: 9889 453f dab5 a1bd 9775 503f 03f0 adbd
000000a0: c949 dcbe 9d5b fc3f 22f8 5b3f 4343 9d3f
000000b0: 0376 bb3d 3dfe 183f 5ded 28bf a127 d7be
000000c0: 255c 513f c277 823e 3c0f 1840 e718 973f
000000d0: be92 93ba aba1 0540 52c2 1d40 71c2 ba3e
000000e0: 7309 99bf 8762 0740 17fd b13f 3ad1 d03f
000000f0: 6b20 df3f 9e11 ae3e 4df9 b73c 7a0a 19bf
00000100: daa8 a7bf aaaa 0f40 c5e7 183f a228 933f
00000110: f72c 35be 2596 a13f ab29 c13e d046 43bf
00000120: f2bf f63f c1bb 2340 6c98 c13e d325 4b3f
00000130: a27d be3f c601 ae3f 5500 b2be 9fb9 4f3f
00000140: bc0b 4e3f 6fcc a8bf 2a24 0cbe 5100 fabe
00000150: 61f7 6abe 84c4 583f 3588 f13f 378e 11be
00000160: e8dc f8be 9e22 073f 8d5f e7be 6d84 3e40
00000170: c9ce fe3e b17d 263f 946c 513f 6e6b 1d3f
00000180: 079f 583f 59c6 b03e cfe2 b33f 7014 71be
00000190: 165d 92bb 01c7 2d3e 0bd3 3c3f 9c86 a4bf
000001a0: 557e ee3e c57a 6240 50b7 0cbf 1bc5 ef3d
000001b0: 76a0 5dbe 5d80 7b3e 0f18 363e 4ece 883e
000001c0: 9147 d13f 1ddf 983e 6d92 533e 8b76 a13e
000001d0: f6de 79bc 2585 563f f4f4 7d3f 457c 5e3f
000001e0: 3774 eebd cdcf 5fbf fffc fa3e 93af f63f
000001f0: 20f1 1840 6411 f73e 0947 0f3f c2dd 213f
00000200: 3f5f 6a3f 5960 a63e 7727 653f c369 0bbf
00000210: a22f 39be f7bf a3bd 5242 873f e43a 513e
00000220: e9b7 ad3d 14f4 1e3f 6eb4 e9bf 308a 7cbf
00000230: 02a8 abbb 5081 adbe 3c19 c33f 4ce6 693d
00000240: 7852 c03f bc84 95be 029e 0bbf de2e 6a3f
00000250: 7a87 8d3f 052e 623f e754 99bf 63b1 543f
00000260: 8c7c 33be 3438 debe 4467 c73e 3617 6cbe
00000270: fee8 4640 85ee 3c3f 5c55 f9be 7fce a2bf
00000280: 51ce d5be 314a f9be 3806 913e 32ee 283f
00000290: 2e5f ec3e 39d0 f9be 2e4a f9be 2758 28be
000002a0: 4d75 863f 991f e3bd 9400 0740 38fa 8dbe
000002b0: 3a4e 4fbe 1136 4e40 a467 16bf 3eed df3e
000002c0: 8b7a 193f 6eea 70bf a8f9 37be 11c3 2140
000002d0: f45e 163f 9017 6b3f 9b1e cd3e dac2 173f
000002e0: 3672 3b3f d023 a93f 9b67 24be 3f2c a6bf
000002f0: 3a15 dabf 55c4 fcbd ac6e 473f 91dc 6640
00000300: a50a 8e3d d41a cbbf 2cdc 09be b375 bb3f
00000310: dcae 89be aa27 b33d 6ab0 e8be cf8f 393f
00000320: 0703 4040 d7c4 24bd 54ce 043f 8802 c83e
00000330: 4ba7 2fbf ec70 3240 bfea e2bf 3513 8c3e
00000340: e35d a9bf cb37 7abf f6c0 0340 9863 213f
00000350: 50a8 80bf 05ae 783f 5f7e 80bc 01c1 40be
00000360: 6b5f c7bd cb84 0c3e e8df f03f 214b b53f
00000370: 9276 5cbe 56ad 4dbe 736f 703e b1e9 babd
00000380: 01c3 16bf 8341 223e 822b 1ebf ce61 183f
00000390: 0252 a6be 56d5 99be 947f 5a3f e7bb 63bd
000003a0: 1486 163f 0923 5c3d bcf7 063f 7a57 1940
000003b0: 536d 643f 5b64 8a3e 5c85 aebf fe00 0540
000003c0: c4ef 6dbf 531b b6bf 730b 1f3f d8cf 683e
000003d0: 9608 2abf 3fc5 153e 19a3 82be d115 1c3f
000003e0: d5fc 31bd 2376 2740 a1fa 9dbf 0601 69bf
000003f0: 8950 b0bf 6fbb d13e 2dd5 303f 960a 55bc

l1.bias f4 [8]
0.41708958 0.5457362 0.5735463 1.3697292 0.51468855 0.20684266 1.1804454 0.5453426
00000000: c48c d53e 5eb5 0b3f eed3 123f 4953 af3f
00000010: a1c2 033f 90ce 533e d618 973f 939b 0b3f

l2.weight f4 [8, 8]
2.7999446 -1.6083483 2.5707948 1.384755 -1.3642982 0.83282435 0.13302293 0.37068456
0.116056636 0.3154271 -0.7846613 1.89423 2.4596138 -0.93927526 -0.1711571 1.5510918
0.23809949 -0.15957366 -0.016510725 -0.2991107 0.005070269 -0.17533334 -0.09221324 0.120872974
1.799942 2.9405074 -0.36586282 2.135383 -2.278813 -1.1231791 -0.46520457 -1.149492
0.6611033 -0.6244918 -2.3588097 1.670115 2.1832924 -1.0531449 2.075686 -3.109283
-0.068311274 -0.11105189 -0.11636694 -0.23828754 -0.2711243 -0.06969711 -0.27516207 -0.3026333
-2.125035 -0.052305613 1.2098986 1.2714725 -1.6414006 -2.086257 1.9149733 0.92453116
0.88370425 1.8979216 -1.0510012 -1.3829218 -0.9736864 2.9695942 1.8098966 0.1162455
00000000: 4b32 3340 5bde cdbf e787 2440 a73f b13f
00000010: 53a1 aebf fa33 553f 2a37 083e 5eca bd3e
00000020: 1aaf ed3d a97f a13e 90df 48bf 2176 f23f
00000030: 506a 1d40 5874 70bf cf43 2fbe 2d8a c63f
00000040: 5ad0 733e 4767 23be 8041 87bc 0a25 99be
00000050: 8024 a63b 958a 33be 4cda bcbd 408c f73d
00000060: 8064 e63f 4631 3c40 5f52 bbbe 1daa 0840
00000070: 12d8 11c0 55c4 8fbf 4b2f eebe 8e22 93bf
00000080: 113e 293f b2de 1fbf bdf6 16c0 54c6 d53f
00000090: 10bb 0b40 74cd 86bf 0ad8 0440 7efe 46c0
000000a0: c8e6 8bbd 2c6f e3bd ca51 eebd a601 74be
000000b0: ced0 8abe 5cbd 8ebd 0be2 8cbe c0f2 9abe
000000c0: 9300 08c0 693e 56bd f5dd 9a3f 9cbf a23f
000000d0: 6a19 d2bf 3c85 05c0 d81d f53f 13ae 6c3f
000000e0: 713a 623f 18ef f23f 3587 86bf 9503 b1bf
000000f0: 8343 79bf d50d 3e40 b1aa e73f 1f12 ee3d

l2.bias f4 [8]
-0.10449105 -0.022171346 -0.15527004 0.6622538 0.5211386 -0.25204793 1.4391736 -0.12076476
00000000: 67ff d5bd afa0 b5bc 1cff 1ebe 7789 293f
00000010: 5769 053f 6d0c 81be d736 b83f 8453 f7bd

l3.weight f4 [49, 8]
0.3854272 -3.00697 0.165593 1.593047 -1.1208714 0.22767606 -0.86105764 -1.1259245
0.018724876 0.21628521 -0.11623292 0.11032736 -0.42977035 -0.31325248 -4.740101 -3.0530293
-4.0058208 -0.0749354 0.26532778 -5.261963 0.9558488 0.12754583 0.5376931 -0.66370195
-4.4448214 -4.5411873 0.27680627 -2.15165 0.07332033 0.300127 -0.8196421 1.7005405
-3.615041 1.0401496 0.22568539 -3.6051366 -0.7676298 -0.016737103 1.0532032 -6.5703354
-1.6229981 0.7440268 -0.2396927 0.14066371 -2.0693002 -0.08351582 -4.3293614 -0.35632476
-3.445738 0.6575498 0.3093303 -6.0117683 0.7285013 0.03924924 -0.613153 -0.6502424
-0.050423995 -1.1492528 0.069660366 1.2067212 -0.77232957 0.28225222 -6.146697 -0.16345452
0.372115 -8.413357 0.09025419 -1.2065245 -7.396937 0.035219163 0.3788514 0.40685844
0.79004717 0.0873152 -0.20359367 -4.0599866 -0.3363657 -0.06672037 -4.375708 -0.646448
0.22321706 -3.5695446 -0.05617392 -5.9709134 -4.14974 -0.051788628 1.4651186 -0.75754523
-2.4876015 -0.39580518 -0.052568913 -0.798003 0.6883749 0.22870913 -6.0818787 0.65202653
-4.2872076 0.48669955 -0.30760044 1.2079833 -0.44031015 0.2338309 -4.530966 -5.0276685
0.9421939 -0.9607994 0.20333627 -1.5354723 -0.9283331 0.13901526 0.0032147318 -2.250959
0.041758195 -0.5062952 0.08694124 -0.21011247 -3.9031959 -0.1579494 -5.584825 0.9528657
0.041056864 -2.4663033 -0.07902002 0.89500767 -7.2520394 -0.08748463 0.1463856 0.10191541
-2.203657 1.043518 0.10479629 -0.37082174 -1.005701 -0.05137351 -1.3431225 -2.8488421
-0.64777017 -1.4120728 -0.17400095 -4.765258 1.3366687 -0.20273249 -2.3225625 -0.0623496
-3.5070307 -0.02112307 0.26215854 -0.7826699 -0.43453202 0.030145645 0.8529052 -0.6962788
-0.6670408 -0.6570943 -0.0136295855 0.32339504 -0.16984063 -0.09052166 -0.8100437 0.20046192
1.6368659 -1.8932219 -0.06856084 -0.7254764 -2.9733627 -0.028961211 -2.8237486 -0.65127534
0.10465246 -0.7349788 -0.09211627 1.355256 -5.6177955 -0.34282163 -2.3010411 -0.2558271
-3.8336008 -0.00096838106 0.07078192 0.04797272 0.5026588 0.27038237 -1.7318401 -1.5789217
0.06483144 1.2826747 0.344412 -3.8809958 -4.004413 -0.2592637 -4.077974 -0.34096715
-0.10337682 -0.019522663 -0.009071976 -3.1592088 -0.18909506 -0.11894953 0.1888654 -5.821371
-5.9449267 0.91259384 -0.22093138 -4.418257 -1.7974905 -0.34159496 0.883835 -0.15391089
0.19831215 -1.3739938 0.24162248 -1.3219491 0.20198989 0.27087495 -5.7593226 0.69757015
1.1278279 -1.345418 -0.20423824 0.81544477 -1.1871727 -0.20412338 -2.04986 -4.339909
-0.26010942 -1.1397576 0.30043772 -0.27977407 0.9520442 -0.29384235 -3.7871585 -0.9374332
1.153269 0.2508456 0.29859397 -3.949309 -4.4072723 0.33506373 0.28275406 -6.282318
0.9964381 0.24357414 0.11065051 -0.8417892 -5.3624196 0.24668935 -2.1235948 -1.4600116
0.055544447 -2.672895 -0.08145991 -0.65328115 -0.55418414 -0.14298883 -0.37142673 0.57563615
00000000: b756 c53e 3272 40c0 3691 293e f7e8 cb3f
00000010: b778 8fbf ea23 693e 466e 5cbf 4b1e 90bf
00000020: e964 993c df79 5d3e 860b eebd 50f3 e13d
00000030: dc0a dcbe a162 a0be e8ae 97c0 d564 43c0
00000040: af2f 80c0 bb77 99bd 0bd9 873e 0062 a8c0
00000050: 82b2 743f 609b 023e 41a6 093f 5fe8 29bf
00000060: fa3b 8ec0 6851 91c0 8db9 8d3e a2b4 09c0
00000070: f828 963d 3faa 993e 11d4 51bf 50ab d93f
00000080: d55c 67c0 9f23 853f 121a 673e 8fba 66c0
00000090: 6383 44bf 401c 89bc 5dcf 863f 3040 d2c0
000000a0: 67be cfbf 8a78 3e3f 0172 75be 260a 103e
000000b0: 6a6f 04c0 580a abbd 218a 8ac0 3370 b6be
000000c0: f986 5cc0 2f55 283f 8b60 9e3e 6860 c0c0
000000d0: 107f 3a3f d0c3 203d 98f7 1cbf 4976 26bf
000000e0: 6489 4ebd b71a 93bf 18aa 8e3d d775 9a3f
000000f0: 64b7 45bf 5d83 903e beb1 c4c0 9f60 27be
00000100: db85 be3e 1c9d 06c1 30d7 b83d 656f 9abf
00000110: b5b3 ecc0 f841 103d d0f8 c13e c04f d03e
00000120: 8840 4a3f 50d2 b23d dc7a 50be 69eb 81c0
00000130: 2038 acbe b0a4 88bd cd05 8cc0 9e7d 25bf
00000140: 0393 643e 6b73 64c0 a016 66bd b911 bfc0
00000150: acca 84c0 5020 54bd 0289 bb3f 7cee 41bf
00000160: dd34 1fc0 faa6 cabe 8052 57bd ed49 4cbf
00000170: 5639 303f ba32 6a3e c09e c2c0 36eb 263f
00000180: ce30 89c0 af30 f93e ce7d 9dbe 329f 9a3f
00000190: 5570 e1be 5e71 6f3e acfd 90c0 a9e2 a0c0
000001a0: 9f33 713f f3f6 75bf 6237 503e 5b8a c4bf
000001b0: 3da7 6dbf 045a 0e3e 40ae 523b b60f 10c0
000001c0: a40a 2b3d 909c 01bf 400e b23d b927 57be
000001d0: f6cd 79c0 7dbd 21be e3b6 b2c0 02ef 733f
000001e0: 3e2b 283d ead7 1dc0 40d5 a1bd 391f 653f
000001f0: b510 e8c0 242b b3bd 1be6 153e 07b9 d03d
00000200: b708 0dc0 ff91 853f 709f d63d 59dc bdbe
00000210: cfba 80bf 086d 52bd 70eb abbf 6e53 36c0
00000220: 44d4 25bf cdbe b4bf 4e2d 32be fe7c 98c0
00000230: f617 ab3f 1b99 4fbe dda4 14c0 4b62 7fbd
00000240: 3173 60c0 4a0a adbc a539 863e 0e5d 48bf
00000250: fb7a debe 00f4 f63c ff57 5a3f 543f 32bf
00000260: 30c3 2abf 5537 28bf a04e 5fbc 0994 a53e
00000270: b4ea 2dbe 6c63 b9bd 065f 4fbf e445 4d3e
00000280: d284 d13f 1855 f2bf a069 8cbd d2b8 39bf
00000290: 934b 3ec0 1040 edbc 4cb8 34c0 fbb9 26bf
000002a0: 0754 d63d 9227 3cbf 74a7 bcbd 0779 ad3f
000002b0: fbc4 b3c0 5186 afbe 4244 13c0 c5fb 82be
000002c0: b759 75c0 f4da 7dba 1cf6 903d 0b7f 443d
000002d0: 3fae 003f 8f6f 8a3e f0ac ddbf 1b1a cabf
000002e0: 59c6 843d af2e a43f c556 b03e 3c62 78c0
000002f0: 2724 80c0 36be 84be c37e 82c0 3f93 aebe
00000300: 3ab7 d3bd feed 9fbc a0a2 14bc 7a30 4ac0
00000310: 23a2 41be d09b f3bd ee65 413e ac48 bac0
00000320: d73c bec0 c09f 693f d63b 62be 5d62 8dc0
00000330: 2b14 e6bf 89e5 aebe 0343 623f d19a 1dbe
00000340: 5712 4b3e 07df afbf e26b 773e a135 a9bf
00000350: 70d6 4e3e 1fb0 8a3e 5f4c b8c0 f593 323f
00000360: aa5c 903f a836 acbf d423 51be fdc0 503f
00000370: 46f5 97bf b805 51be e830 03c0 89e0 8ac0
00000380: 102d 85be 94e3 91bf f9d2 993e 8c3e 8fbe
00000390: 2bb9 733f 8172 96be ce60 72c0 9ffb 6fbf
000003a0: 529e 933f d66e 803e 4fe1 983e 7bc1 7cc0
000003b0: 6008 8dc0 798d ab3e 24c5 903e c008 c9c0
000003c0: 9116 7f3f 806b 793e bc9c e23d 7f7f 57bf
000003d0: f198 abc0 229c 7c3e fae8 07c0 a9e1 babf
000003e0: 9382 633d b610 2bc0 74d4 a6bd 6f3d 27bf
000003f0: 03df 0dbf aa6b 12be a52b bebe e45c 133f

l3.bias f4 [49]
-1.084929 -0.26327488 0.32395402 0.34237573 0.14870301 0.29765072 0.13770849 -0.44416666
-0.6648525 -0.006487983 -0.6093957 -0.19997108 -0.33519968 -2.536004 -0.26085457 -0.8259294
-1.1520661 -0.86860013 -1.7965523 -0.16432111 -0.5310485 -0.9883056 -1.185973 0.73793083
-0.5432775 -0.17622742 -0.91754615 -0.61936605 -1.453902 0.46428853 0.12429277 -0.29484436
-1.2662464 -0.11326122 -0.28587174 -1.0925199 -0.7620786 0.37239817 -0.24142528 -0.012383546
0.4833923 0.8793446 -0.97904557 -0.058928158 -0.29257315 1.2047172 0.12152492 -0.7700121
-0.8910928
00000000: f4de 8abf f7cb 86be 4ddd a53e df4b af3e
00000010: 9a45 183e ad65 983e 7403 0d3e d069 e3be
00000020: c633 2abf 2599 d4bb 5b01 1cbf 38c5 4cbe
00000030: 4b9f abbe e44d 22c0 bb8e 85be 1c70 53bf
00000040: e776 93bf 945c 5ebf 6df5 e5bf cb43 28be
00000050: cbf2 07bf 9901 7dbf f7cd 97bf 09e9 3c3f
00000060: 3c14 0bbf f674 34be 4ee4 6abf c68e 1ebf
00000070: 7619 babf 3ab7 ed3e 358d fe3d d7f5 96be
00000080: 5d14 a2bf 80f5 e7bd c85d 92be b1d7 8bbf
00000090: 9517 43bf f9aa be3e 3038 77be 5be4 4abc
000000a0: 327f f73e ba1c 613f bba2 7abf a75e 71bd
000000b0: 26cc 95be 2c34 9a3f 0fe2 f83d 831f 45bf
000000c0: a81e 64bf
