data.pth (torch, 17130 bytes, 6 tensors)

l1.weight f4 [8, 257]
-0.86922604 -0.19888525 0.3160125 0.31684315 2.2387807 1.1168122 -0.4258369 1.683373
1.8877618 0.036334984 -0.39279142 1.0282255 2.0163748 0.7839865 1.857941 -1.1490413
-0.2139404 -1.7275925 0.09567424 -0.6285412 1.0299051 0.83827984 0.41008595 0.71668094
-0.81688267 0.47695428 0.76488435 0.21049516 -0.3066892 0.965118 -0.6820334 1.6288546
-0.32997805 0.021555273 0.7434734 -0.48980945 1.0258191 -0.5191228 1.0908405 1.0536127
1.5128101 0.46691045 1.0059017 -0.8606702 -1.3729178 0.998855 0.6188325 2.5290852
2.6499221 1.4565645 1.4672631 1.7503611 -0.3935395 -1.7715011 1.9233863 1.3870128
1.1459422 0.94776857 0.5294716 -0.41251075 -0.1060196 -1.7887703 1.5372432 0.41911575
0.23126362 1.3515191 0.43617976 0.4737958 -1.6821386 1.39113 -0.42012575 -0.39387438
2.2666335 1.3303548 1.1476222 -0.03802561 1.4611576 1.0492233 0.8949693 0.88744956
-0.6825706 1.0489529 0.6367509 1.1441293 0.7452045 0.6641103 -0.43335035 1.1678448
0.041390017 1.5584426 1.4034718 1.9087896 0.9186637 0.44519874 1.2686098 -0.44135493
-0.42948955 0.57111806 2.5198262 -0.11787477 -0.44118047 -0.6662378 -0.6855698 0.72849023
-0.43804044 -0.44987077 0.62684625 1.4310359 -0.16455756 -0.6854022 0.91649973 1.463889
0.65279704 1.0160105 0.7135523 0.19223031 -0.6878401 0.8774036 0.9361727 2.8893864
1.7845268 0.67938924 0.04556089 1.2694305 -0.01056143 0.1987117 1.0006057 -0.39663795
1.2029114 -0.35780528 -0.14910063 -0.043748662 0.5608112 2.3485613 0.6494377 -0.075663224
1.0286828 0.82324696 1.4845031 0.90377206 -0.637261 1.696802 1.6459968 1.2573344
-3.488688 -1.3243269 -1.1838316 0.124198124 -0.3942029 -0.19517808 -0.22012582 1.2738212
1.7600422 0.28397685 2.4100878 1.2389764 1.7580626 -0.60398066 -0.3595069 0.96603644
1.7332027 1.7989346 0.9313349 1.2162349 -0.096974894 -2.3166552 -0.4936591 0.96549594
-1.7340958 -0.17875487 -0.1572666 0.81481004 1.721568 1.833589 1.3045981 0.6012105
0.10509669 -0.13045885 1.4854021 0.066021904 -0.12585935 0.90388036 2.4212904 1.8192929
1.1927379 2.5446424 0.6302213 -2.710608 0.1950988 1.8845075 -0.3542739 -0.036913764
0.107264325 0.045374934 2.034081 -0.023789614 0.468375 1.7348295 1.1337239 0.6595732
-1.6064831 2.5174222 0.92246896 0.23076934 0.025619566 2.7249663 0.36106345 1.6675206
1.4534599 1.957513 -0.3529439 -0.40084702 0.05941291 1.0514456 0.47428527 -0.15206304
-0.20519216 1.096881 -1.127631 -0.12052723 -0.0017675019 1.0740303 1.3045553 0.47363418
0.91119444 1.0292323 -0.48764467 0.8470217 0.025459005 0.9454585 2.74066 0.49626514
-0.52516156 1.2351056 2.0355895 1.972361 0.09025777 1.561267 -0.50564075 1.9311122
-0.7974517 -0.24947 0.8983965 -0.071812004 1.998158 -1.6312251 -1.5239514 1.0631278
0.39246267 0.35165912 0.34622428 -0.3623855 0.584449 1.2981523 0.8032508 -0.3276176
00000000: 9985 5ebf 93a8 4bbe 64cc a13e 4439 a23e
00000010: 2f48 0f40 b4f3 8e3f 4b07 dabe c478 d73f
00000020: 2ea2 f13f fed3 143d f51b c9be e59c 833f
00000030: 490c 0140 57b3 483f 03d1 ed3f c913 93bf
00000040: 3113 5bbe c021 ddbf dbf0 c33d 13e8 20bf
00000050: eed3 833f 8299 563f c9f6 d13e 6778 373f
00000060: 391f 51bf 5a33 f43e 76cf 433f 0b8c 573e
00000070: 5e06 9dbe f911 773f be99 2ebf 4f7e d03f
00000080: e2f2 a8be af94 b03c 4654 3e3f 4ec8 fabe
00000090: 0a4e 833f 3be5 04bf a9a0 8b3f c8dc 863f
000000a0: c3a3 c13f e30e ef3e 63c1 803f e254 5cbf
000000b0: c5bb afbf f6b4 7f3f cf6b 1e3f 88dc 2140
000000c0: 5398 2940 b570 ba3f 47cf bb3f d50b e03f
000000d0: 027e c9be 8cc0 e2bf 8631 f63f a389 b13f
000000e0: 3cae 923f f6a0 723f 738b 073f 9c34 d3be
000000f0: ce20 d9bd 6df6 e4bf 63c4 c43f 5796 d63e
00000100: 5fd0 6c3e 94fe ac3f f452 df3e 5d95 f23e
00000110: 5150 d7bf 8c10 b23f b91a d7be e7a9 c9be
00000120: 8610 1140 1149 aa3f 49e5 923f bec0 1bbd
00000130: 3607 bb3f f34c 863f b51c 653f e52f 633f
00000140: f2bc 2ebf 1744 863f 1b02 233f d472 923f
00000150: b9c5 3e3f 2203 2a3f 19e0 ddbe f07b 953f
00000160: 9488 293d 0c7b c73f f7a4 b33f 3853 f43f
00000170: 8b2d 6b3f 17f1 e33e ce61 a23f 46f9 e1be
00000180: 0ee6 dbbe cb34 123f d544 2140 5468 f1bd
00000190: 68e2 e1be 8f8e 2abf 8181 2fbf 567e 3a3f
000001a0: d646 e0be 7655 e6be ff78 203f 2f2c b73f
000001b0: c781 28be 8576 2fbf ba9f 6a3f b760 bb3f
000001c0: b51d 273f a20c 823f 5dab 363f 06d8 443e
000001d0: 4a16 30bf 869d 603f 04a9 6f3f b5eb 3840
000001e0: 606b e43f 74ec 2d3f 0e9e 3a3d b37c a23f
000001f0: d909 2dbc 147b 4b3e d913 803f 2114 cbbe
00000200: 00f9 993f 4132 b7be d6ad 18be cc31 33bd
00000210: 5391 0f3f d44e 1640 8d41 263f 52f5 9abd
00000220: e1ab 833f 50c0 523f 3304 be3f 9b5d 673f
00000230: 8923 23bf cf30 d93f 06b0 d23f 55f0 a03f
00000240: aa46 5fc0 8b83 a9bf cb87 97bf 965b fe3d
00000250: f6d4 c9be c3dc 47be aa68 61be 930c a33f
00000260: 1049 e13f 6a65 913e e13e 1a40 c796 9e3f
00000270: 3208 e13f 7a9e 1abf 4a11 b8be 2a4e 773f
00000280: 96d9 dd3f 7d43 e63f f76b 6e3f 96ad 9b3f
00000290: c69a c6bd 1444 14c0 e3c0 fcbe be2a 773f
000002a0: daf6 ddbf 840b 37be 7f0a 21be 6497 503f
000002b0: 575c dc3f 0bb3 ea3f 12fd a63f eee8 193f
000002c0: ef3c d73d 0197 05be a821 be3f 7e36 873d
000002d0: 46e1 00be b464 673f 6cf6 1a40 97de e83f
000002e0: a3ab 983f 6cdb 2240 2f56 213f 9a7a 2dc0
000002f0: fbc7 473e 8b37 f13f 6363 b5be e332 17bd
00000300: 66ad db3d 11db 393d 622e 0240 70e2 c2bc
00000310: d9ce ef3e e50e de3f dd1d 913f cad9 283f
00000320: 3da1 cdbf 721d 2140 ed26 6c3f cc4e 6c3e
00000330: 20e0 d13c d965 2e40 4fdd b83e 5171 d53f
00000340: f90a ba3f c98f fa3f 10b5 b4be d23b cdbe
00000350: f45a 733d c595 863f 85d5 f23e 6ab6 1bbe
00000360: e51d 52be 9966 8c3f 3656 90bf fbd6 f6bd
00000370: 86ab e7ba d379 893f abfb a63f 2e80 f23e
00000380: 0a44 693f e2bd 833f 90ac f9be 6ad6 583f
00000390: 678f d03c 9109 723f f966 2f40 7716 fe3e
000003a0: fd70 06bf f117 9e3f 1947 0240 5376 fc3f
000003b0: 11d9 b83d 99d7 c73f ac71 01bf af2e f73f
000003c0: cb25 4cbf 1075 7fbe 50fd 653f 2c12 93bd
000003d0: a4c3 ff3f fccb d0bf d710 c3bf 9214 883f
000003e0: def0 c83e aa0c b43e 4f44 b13e 988a b9be
000003f0: 739e 153f db29 a63f d8a1 4d3f 7ebd a7be

l1.bias f4 [8]
0.6787723 0.39941856 1.2736487 1.0908016 0.7537756 0.5512394 0.5786747 0.78143513
00000000: 05c4 2d3f 9780 cc3e ec06 a33f 639f 8b3f
00000010: 70f7 403f 061e 0d3f 0624 143f 220c 483f

l2.weight f4 [8, 8]
0.9822052 1.6353332 -0.32783517 -1.7160248 1.8066783 1.948336 -0.81670874 -0.28122956
-0.048327804 0.24467266 -0.2548482 -0.12683825 -0.32619515 0.34678042 0.13935104 -0.26138607
-1.8860893 -1.5263864 3.2445998 2.4892344 2.1100936 1.675253 -0.9606086 0.40545553
3.2954817 2.3460975 0.4473156 1.7771631 0.38086832 -1.9809684 0.06975371 -0.25642663
-0.72107005 -0.27113292 -0.4452152 -1.0885769 0.7679476 2.2407527 3.3729937 0.9659907
0.31855744 -1.6675056 1.3635794 -1.4735969 1.5114604 -0.6699511 0.3150015 2.966547
-1.368398 1.5996636 -0.048895497 -0.12881288 0.97048867 -0.45008656 1.7220758 -1.8575163
2.0688403 -0.583492 -0.9077624 -0.7852651 0.46910587 1.3207974 -0.44840446 1.959236
00000000: cd71 7b3f 9952 d13f 03da a7be b3a6 dbbf
00000010: 3c41 e73f 1363 f93f d313 51bf 52fd 8fbe
00000020: 60f3 45bd 788b 7a3e 777b 82be e3e1 01be
00000030: 0d03 a7be 348d b13e 0ab2 0e3e 65d4 85be
00000040: 606b f1bf a160 c3bf 86a7 4f40 9e4f 1f40
00000050: c60b 0740 b16e d63f 72ea 75bf de97 cf3e
00000060: 2ce9 5240 7626 1640 8d06 e53e 157a e33f
00000070: 2c01 c33e 5f90 fdbf 08db 8e3d 5a4a 83be
00000080: 0c98 38bf efd1 8abe 3ff3 e3be 7d56 8bbf
00000090: 3798 443f 7e68 0f40 21df 5740 2b4b 773f
000000a0: f619 a33e d370 d5bf c589 ae3f d39e bcbf
000000b0: 8977 c13f ea81 2bbf e047 a13e e8db 3d40
000000c0: aa27 afbf c7c1 cc3f a546 48bd 86e7 03be
000000d0: f271 783f bf71 e6be fb6c dc3f 18c3 edbf
000000e0: e167 0440 bb5f 15bf 1e63 68bf 2207 49bf
000000f0: a52e f03e e40f a93f 4595 e5be 3fc8 fa3f

l2.bias f4 [8]
-0.5294562 -0.14338899 0.9699153 0.93843955 0.2478679 0.17212227 -0.06690468 -0.17845237
00000000: 718a 07bf 90d4 12be 5e4c 783f 933d 703f
00000010: 15d1 7d3e d240 303e 5205 89bd 38bc 36be

l3.weight f4 [48, 8]
-4.7750626 -0.065108426 -0.18857823 -0.07371188 -1.1391172 0.93288785 -2.0890405 -3.7644212
-1.193494 -0.28236064 0.08925135 -0.74292433 -3.3818884 -0.13640963 -3.7729213 0.11461897
-3.381494 -0.39712 0.4940733 -0.078671485 -1.8205755 -2.33505 0.48682198 -5.19117
-0.038497332 -0.7946335 -0.4696063 -5.0380473 0.5332049 0.6527862 -1.1529919 0.0076348134
0.60648704 -0.31377554 -0.54826355 -1.3733325 -2.0021417 1.3098992 -1.3049322 -1.9638848
-2.446784 0.022404438 -0.4725514 0.29269752 -2.9982574 -5.389791 -2.9807572 1.5041087
-3.9889839 -0.5282825 0.16478522 0.01951201 -0.108035766 -7.4200854 0.2611736 -7.6754684
-2.8609047 0.18067774 -1.3973987 -0.41136935 -3.7248344 0.9017527 -4.7418404 0.62379396
0.76129395 -1.1983464 -5.4575996 -0.3607821 -1.1896551 0.13208115 -1.7809129 0.29679793
-0.33240467 -1.283553 -1.5542608 0.20142204 -0.9479611 -0.28142977 -0.56541157 -1.1700474
0.18007702 0.12150006 0.6738838 -3.372509 0.14366443 -0.29585388 -1.6041769 -2.8682127
-0.67425746 -0.46404332 -0.50818574 0.8652076 -3.101378 -1.5155174 -2.0080514 -7.248291
-2.0294888 0.99584216 0.0026669041 -2.041082 1.3563417 -2.8451965 0.7224608 0.15950115
-0.042896844 -0.070782274 -0.10190652 -0.67014617 -5.824367 1.0485647 -1.7070636 -4.2649517
-2.97628 -0.12851734 -0.58914053 -1.9450847 0.46296552 1.1455977 -6.0514145 -0.31562483
0.23842382 -0.19658858 -1.2667022 -0.06193812 -0.65438896 -4.4267464 -1.988078 0.80581653
0.943767 -0.5726403 -1.4570942 0.3258163 -5.2043014 -5.433757 0.16861174 -0.69123054
0.5054542 -0.42278725 -4.6643486 0.58518726 -2.3924081 -3.1080832 0.84818935 -1.7709376
0.5786242 -0.30141053 -1.3456973 -1.087069 -1.3525585 0.3784752 -3.0152974 0.23313105
0.12540692 1.0441955 -0.49871784 -0.38610914 0.45274764 -3.2671218 0.14462428 -1.5803112
0.6633579 -2.4187098 -4.84112 -0.44069818 0.042914316 -1.6051515 0.16315025 -0.60023886
-1.7130634 0.21099731 -3.4112415 0.33580458 0.35024956 -3.3889081 -0.6346894 -0.89549
0.944656 0.7235826 -4.4624076 0.36025274 -4.6586995 -2.489962 -0.5760991 0.62983173
-0.89760375 -0.09942794 0.9433027 -1.3540777 -3.5070689 -1.1359887 -3.3957953 -2.3043463
0.29935747 0.07323005 -1.8805372 0.15271899 -5.4243684 -0.71026784 -2.2644138 0.17010649
-0.99332494 0.21172433 -0.24651897 -1.359278 0.4885899 -1.3080645 -5.5147295 0.9805159
-0.36527774 -1.3029773 -3.3685312 -1.5407829 0.10748941 0.8251144 -2.8246965 0.9235305
0.44611323 -0.37627697 -1.9937297 -1.516378 0.7265033 -1.1597666 -0.8048969 0.5687741
-1.038471 -0.19840434 -4.2344956 -0.20685086 -1.79549 1.5316069 -4.7563562 0.25489226
0.5723832 1.0334303 -3.7553823 -1.8085811 1.2977128 -2.9116683 0.9216701 -2.3582044
-2.3657858 -0.20889272 -0.43728402 -1.2985973 0.81143856 1.0012668 -0.69553304 -3.2686663
-2.9149435 -0.12834309 -1.8789383 1.1021384 -3.6476257 -3.6261568 0.07805875 -0.7611043
00000000: 50cd 98c0 9157 85bd a71a 41be 41f6 96bd
00000010: 98ce 91bf bdd1 6e3f d7b2 05c0 47ec 70c0
00000020: 69c4 98bf 9391 90be 69c9 b63d 4a30 3ebf
00000030: dc70 58c0 f7ae 0bbe 8b77 71c0 5abd ea3d
00000040: 666a 58c0 5053 cbbe 2df7 fc3e 841e a1bd
00000050: 9e08 e9bf 7671 15c0 bb40 f93e 111e a6c0
00000060: 61af 1dbd 1a6d 4bbf 3d70 f0be af37 a1c0
00000070: 1e80 083f ff1c 273f 3d95 93bf 752d fa3b
00000080: bc42 1b3f 30a7 a0be 005b 0cbf 5cc9 afbf
00000090: 1723 00c0 c7aa a73f 0508 a7bf 9460 fbbf
000000a0: 1c98 1cc0 8389 b73c 42f2 f1be 73dc 953e
000000b0: 73e3 3fc0 2b79 acc0 bac4 3ec0 a286 c03f
000000c0: 834b 7fc0 863d 07bf 75bd 283e a7d7 9f3c
000000d0: db41 ddbd 5771 edc0 8cb8 853e 709d f5c0
000000e0: 1019 37c0 9603 393e f6dd b2bf 019f d2be
000000f0: b063 6ec0 44d9 663f 28bd 97c0 f6b0 1f3f
00000100: 29e4 423f 6a63 99bf a8a4 aec0 6eb8 b8be
00000110: 9e46 98bf 4840 073e f4f4 e3bf e6f5 973e
00000120: f230 aabe 774b a4bf 05f2 c6bf 9441 4e3e
00000130: 94ad 72bf 9017 90be d0be 10bf 1dc4 95bf
00000140: 1c66 383e 06d5 f83d a683 2c3f 30d7 57c0
00000150: c51c 133e 297a 97be ab55 cdbf cc90 37c0
00000160: 239c 2cbf 1697 edbe 7618 02bf 3f7e 5d3f
00000170: fa7c 46c0 79fc c1bf ea83 00c0 00f2 e7c0
00000180: 25e3 01c0 83ef 7e3f 3ac7 2e3b 16a1 02c0
00000190: 9b9c ad3f b317 36c0 31f3 383f 4554 233e
000001a0: 9ab4 2fbd 4cf6 90bd 5eb4 d0bd b38e 2bbf
000001b0: 3761 bac0 5e37 863f 0f81 dabf 7c7a 88c0
000001c0: 5f7b 3ec0 0d9a 03be ead1 16bf 89f8 f8bf
000001d0: d109 ed3e f2a2 923f 30a5 c1c0 9499 a1be
000001e0: 6025 743e 844e 49be 4c23 a2bf d3b2 7dbd
000001f0: 0986 27bf e8a7 8dc0 5779 febf fe49 4e3f
00000200: b79a 713f 8e98 12bf 1082 babf 65d1 a63e
00000210: a389 a6c0 56e1 adc0 8ea8 2c3e 7cf4 30bf
00000220: 7265 013f 9277 d8be 5842 95c0 d5ce 153f
00000230: 371d 19c0 d6ea 46c0 f022 593f 15ae e2bf
00000240: b720 143f 7b52 9abe cf3f acbf 1425 8bbf
00000250: a320 adbf 80c7 c13e a2fa 40c0 e8b9 6e3e
00000260: ac6a 003e 33a8 853f f257 ffbe 19b0 c5be
00000270: 8ace e73e 8618 51c0 6318 143e a347 cabf
00000280: d3d1 293f 24cc 1ac0 74ea 9ac0 31a3 e1be
00000290: ecc6 2f3d 9b75 cdbf dc10 273e 41a9 19bf
000002a0: a945 dbbf ae0f 583e c851 5ac0 94ee ab3e
000002b0: e953 b33e dfe3 58c0 017b 22bf d53e 65bf
000002c0: fad4 713f b63c 393f 0bcc 8ec0 0c73 b83e
000002d0: 1114 95c0 8a5b 1fc0 3b7b 13bf a73c 213f
000002e0: 5cc9 65bf e0a0 cbbd 497c 713f 6b52 adbf
000002f0: d173 60c0 1468 91bf b654 59c0 697a 13c0
00000300: 6245 993e a3f9 953d 71b5 f0bf 5e62 1c3e
00000310: 6d94 adc0 1dd4 35bf 28ec 10c0 6530 2e3e
00000320: 8b4a 7ebf 43ce 583e 786f 7cbe d2fc adbf
00000330: 7528 fa3e a86e a7bf aa78 b0c0 1703 7b3f
00000340: af05 bbbe f6c7 a6bf 0496 57c0 6038 c5bf
00000350: 6823 dc3d b33a 533f d4c7 34c0 7f6c 6c3f
00000360: f468 e43e 60a7 c0be 8932 ffbf ad18 c2bf
00000370: 1ffc 393f 3b73 94bf b90d 4ebf 2e9b 113f
00000380: 9eec 84bf 822a 4bbe fd80 87c0 b6d0 53be
00000390: 9ed2 e5bf b20b c43f 1234 98c0 3d81 823e
000003a0: b587 123f 7247 843f 2f58 70c0 967f e7bf
000003b0: 741b a63f c658 3ac0 92f2 6b3f d2ec 16c0
000003c0: 0969 17c0 f9e7 55be b1e3 dfbe 7038 a6bf
000003d0: 70ba 4f3f 8329 803f 740e 32bf d431 51c0
000003e0: 6f8e 3ac0 5f6c 03be 0d81 f0bf df12 8d3f
000003f0: b372 69c0 f412 68c0 44dd 9f3d bbd7 42bf

l3.bias f4 [48]
-0.7129733 0.276958 0.27957597 -0.777264 -0.9262895 -0.26230627 -0.011643933 -0.89139533
-0.58203644 -0.9504427 -0.6313176 -0.20093219 0.38020828 -0.18700376 -0.691849 0.46107233
0.20550133 0.1647467 -0.396855 0.10909272 -0.7181775 0.29236078 -0.16659178 -0.76139194
-0.51918024 -0.2749559 -0.5956184 -0.3974834 0.22343299 0.19888064 -0.29107946 0.5764335
-0.006301326 -0.49983957 -1.1735741 0.43376398 0.27495798 0.014287544 -1.1494588 -0.46423844
-0.79635245 0.9303935 -0.8684771 -0.29525176 0.7339161 0.33354288 -0.4671675 -1.3934377
00000000: 6b85 36bf 70cd 8d3e 9524 8f3e c6fa 46bf
00000010: 4f21 6dbf 024d 86be 32c6 3ebc 7c32 64bf
00000020: 5700 15bf 3650 73bf 089e 21bf 2bc1 4dbe
00000030: a9aa c23e ea7d 3fbe 041d 31bf ac11 ec3e
00000040: f16e 523e 5cb3 283e 9430 cbbe 016c df3d
00000050: 7bda 37bf 50b0 953e 0997 2abe 95ea 42bf
00000060: ffe8 04bf 05c7 8cbe 737a 18bf f282 cbbe
00000070: 9ecb 643e 5ea7 4b3e 5e08 95be 2591 133f
00000080: 5b7b cebb f9ea ffbe ad37 96bf 5016 de3e
00000090: 4bc7 8c3e 4e16 6a3c 7721 93bf a9b0 edbe
000000a0: c1dd 4bbf 452e 6e3f 8454 5ebf 3d2b 97be
000000b0: ede1 3b3f 22c6 aa3e 9430 efbe 2b5c b2bf
