data.pth (torch, 5994 bytes, 6 tensors)

l1.weight f4 [8, 63]
-0.00348026 -0.012254731 -0.38697 -0.56030744 0.27483833 -0.3364769 -0.45323846 0.75556755
1.2126923 -0.10874519 0.76790494 0.49543217 -0.47048646 -0.4951237 0.042555816 -0.5544089
-0.36644357 -0.24656798 -0.33355466 0.62926036 0.13996488 -0.5992628 -0.354683 -0.65501684
-0.6027016 -0.32590666 -0.09252642 0.44046655 -0.29497358 0.70702875 0.61375767 0.06355303
-0.041234344 0.38405895 0.9384921 -0.50190413 0.45180044 0.04743356 1.0932425 -0.34746307
1.464724 -0.28475446 -0.30487707 0.4882927 -0.4097971 -0.46565616 -0.2282058 0.7211762
0.39353114 -0.7424992 -0.3404687 0.14880468 -0.06726047 -0.16236174 0.6891552 0.7696065
-0.50849384 0.3629854 -0.16895816 -0.10706926 0.17003438 0.35737544 0.14220874 0.4687054
0.36924437 -0.031205518 0.024027966 0.06641511 0.14321057 -0.09221186 -0.0033562328 1.0768389
-0.010563485 0.5186613 0.23197496 0.7073405 -0.06811323 -0.054862432 -0.006955085 -0.00075288484
-0.018855752 0.63799244 0.087833926 0.7237858 0.18747987 0.52214503 0.2802448 0.20904146
-0.114904135 -0.25582162 -0.43905884 0.09437731 0.71765417 -0.22079489 -0.01515501 0.39107367
0.11195833 -1.038492 0.07349407 -0.06766641 0.037368484 -0.55888224 0.08204138 0.2501914
0.85994595 -0.70029294 0.61826515 0.7828445 -0.93195343 -0.6110113 0.67147344 0.19456229
1.2196741 0.6908725 0.39796838 0.103624366 -0.07528979 -0.26465616 -0.08541519 0.6363778
0.10643066 -0.05986892 0.007811039 0.10681296 0.12771554 0.7805507 0.5773962 0.028601525
-0.23915154 -0.27140284 0.4505629 -0.084584065 -0.22363912 0.34610707 0.21413633 -0.03412429
-0.03575163 -0.13878329 0.66814554 -0.37513515 -0.09027997 -0.21802047 -0.37517992 -0.1390117
0.45790267 0.5457372 -0.16048418 -0.53559184 0.35407183 -0.5290921 -0.5265491 -0.2895393
-0.18164863 0.20505974 -0.24754857 -0.12575763 0.63191515 -0.07746258 0.15777396 0.22302598
0.27264503 -0.3337447 -0.045614697 0.72930217 0.4452796 -0.13599351 -0.8427332 0.8789539
-0.96542704 -0.34144628 0.8318011 -1.1442103 -0.6958064 0.11981598 0.26827684 0.56436074
0.22144803 0.55177927 -0.20342816 -0.028965898 0.047139592 0.5469097 0.7594792 0.28963757
-0.20549603 -0.09890138 0.3429535 0.46888712 0.19982296 0.046233315 -0.11425365 0.24526277
0.37633154 -0.31460506 0.33130413 0.30078402 0.03227971 -0.7522314 0.061686072 -0.33504105
-0.36590767 0.51011306 0.4664899 -0.20659071 0.32657996 0.34560195 -0.16724451 0.507146
0.09523023 0.3582963 0.6128543 -0.11135198 0.60006833 0.52115613 0.3383449 -0.16946018
-0.11567712 0.34983018 -0.5121703 0.03376681 -0.007057438 0.34429538 -0.045246694 0.9850974
0.4700578 0.15524964 -0.32149154 0.8596744 0.3632236 -1.12902 0.67535985 -0.654363
-0.38565624 0.5936147 0.48306403 0.23233648 -0.4663403 -0.16177559 -0.40077996 -0.1990766
0.18831505 0.37662172 0.04457287 0.15670486 0.031829443 0.74038893 -0.10844673 -0.17708842
-0.10525455 0.11847579 -0.21985157 0.18032901 -0.15678507 0.0025495111 0.26027116 0.46783987
00000000: 1315 64bb 11c8 48bc ef20 c6be 4f70 0fbf
00000010: 9cb7 8c3e b346 acbe df0e e8be e06c 413f
00000020: 8039 9b3f ccb5 debd 6b95 443f 49a9 fd3e
00000030: 9ae3 f0be db80 fdbe 024f 2e3d beed 0dbf
00000040: 7e9e bbbe 517c 7cbe adc7 aabe 3517 213f
00000050: f452 0f3e 4969 19bf 0399 b5be 2faf 27bf
00000060: a74a 1abf 3ddd a6be 7e7e bdbd d584 e13e
00000070: c706 97be d6ff 343f 391f 1d3f 1728 823d
00000080: 58e5 28bd 60a3 c43e 0541 703f ca7c 00bf
00000090: 6352 e73e b149 423d 5fef 8b3f aee6 b1be
000000a0: 137c bb3f 56cb 91be d918 9cbe 8001 fa3e
000000b0: edd0 d1be 7c6a eebe c8ae 69be 019f 383f
000000c0: ea7c c93e 6d14 3ebf ea51 aebe 4160 183e
000000d0: dbbf 89bd 2842 26be 7a6c 303f ee04 453f
000000e0: a72c 02bf 39d9 b93e 5e03 2dbe 2147 dbbd
000000f0: 7e1d 2e3e eaf9 b63e 2b9f 113e 27fa ef3e
00000100: 990d bd3e b7a2 ffbc 4cd6 c43c a504 883d
00000110: cba5 123e 92d9 bcbd 3ef4 5bbb dbd5 893f
00000120: 7812 2dbc fdc6 043f d88a 6d3e 4414 353f
00000130: f37e 8bbd 6eb7 60bd 7be7 e3bb 3f5d 45ba
00000140: 6177 9abc 7953 233f 46e2 b33d 074a 393f
00000150: b9fa 3f3e 4cab 053f 3f7c 8f3e f70e 563e
00000160: dc52 ebbd 0dfb 82be 52cc e0be e448 c13d
00000170: 2fb8 373f 0e18 62be b84c 78bc cf3a c83e
00000180: 694a e53d 4eed 84bf 0f84 963d b094 8abd
00000190: b20f 193d e812 0fbf 5005 a83d 1619 803e
000001a0: 6b25 5c3f 6646 33bf a046 1e3f 7f68 483f
000001b0: 8094 6ebf 3d6b 1cbf afe5 2b3f 563b 473e
000001c0: 481e 9c3f 05dd 303f 83c2 cb3e 0339 d43d
000001d0: 8931 9abd 0381 87be 29ee aebd a8e9 223f
000001e0: 51f8 d93d 1d39 75bd bff3 ff3b c1c0 da3d
000001f0: ddc7 023e 2cd2 473f 3dd0 133f bf4d ea3c
00000200: 24e4 74be 50f5 8abe 2eb0 e63e 693a adbd
00000210: a701 65be f234 b13e 8e46 5b3e e9c5 0bbd
00000220: 4d70 12bd 351d 0ebe 960b 2b3f b711 c0be
00000230: b4e4 b8bd c240 5fbe 9517 c0be 1559 0ebe
00000240: 3872 ea3e 6fb5 0b3f f755 24be 8c1c 09bf
00000250: e748 b53e 9472 07bf eccb 06bf 7f3e 94be
00000260: 1902 3abe 2efb 513e 5f7d 7dbe 9cc6 00be
00000270: 31c5 213f b3a4 9ebd 7f8f 213e ec60 643e
00000280: 2198 8b3e 96e0 aabe 7ad6 3abd 8cb3 3a3f
00000290: b0fb e33e e241 0bbe 5dbd 57bf 1f03 613f
000002a0: 3a26 77bf 0cd2 aebe ebf0 543f 7c75 92bf
000002b0: 5e20 32bf 1562 f53d 955b 893e f279 103f
000002c0: 46c3 623e 6841 0d3f 794f 50be e449 edbc
000002d0: 7215 413d 4602 0c3f 3b6d 423f 604b 943e
000002e0: 8d6d 52be cf8c cabd 9a97 af3e f911 f03e
000002f0: 649e 4c3e 255f 3d3d d1fd e9bd 2a26 7b3e
00000300: 87ae c03e ea13 a1be b2a0 a93e 5d00 9a3e
00000310: bb37 043d 3d92 40bf 89aa 7c3d 808a abbe
00000320: 4058 bbbe c596 023f c4d7 ee3e 848c 53be
00000330: 7d35 a73e bdf2 b03e 2542 2bbe 52d4 013f
00000340: 1108 c33d 9d72 b73e 05e4 1c3f 820c e4bd
00000350: 149e 193f 7d6a 053f 8b3b ad3e f886 2dbe
00000360: 20e8 ecbd f11c b33e 981d 03bf 114f 0a3d
00000370: 1542 e7bb 7c47 b03e 9954 39bd 582f 7c3f
00000380: 6aab f03e c3f9 1e3e 8a9a a4be 9f13 5c3f
00000390: 72f8 b93e ba83 90bf 62e4 2c3f 5584 27bf
000003a0: bc74 c5be 22f7 173f 2b54 f73e 9de9 6d3e
000003b0: 28c4 eebe 80a8 25be 0833 cdbe bcda 4bbe
000003c0: a9d5 403e 90d4 c03e 0b92 363d 3d77 203e
000003d0: 975f 023d 218a 3d3f 5219 debd ab56 35be
000003e0: b38f d7bd 6fa3 f23d c520 61be 2ba8 383e
000003f0: 448c 20be b315 273b 4342 853e b588 ef3e

l1.bias f4 [8]
0.6986801 1.0360454 0.5356175 0.87683576 0.82174647 0.82884216 0.52675337 0.91737187
00000000: b3dc 323f 239d 843f 3a1e 093f 4f78 603f
00000010: fa5d 523f 002f 543f 4fd9 063f e2d8 6a3f

l2.weight f4 [8, 8]
0.93040174 1.9325544 0.9025979 0.2512963 -0.6303655 0.06806072 -0.79344195 0.12737502
0.44506964 -0.69411176 -1.1131169 0.7536149 1.8095802 0.99666744 0.14111133 1.1588789
1.492556 -0.44282553 0.98409766 1.1540866 1.6370345 -0.97415984 1.4532866 -0.28116277
-0.8989575 0.36892614 0.52274704 1.2107651 1.2794836 1.6586846 -0.60145074 1.081337
0.6527674 1.0426506 0.04307325 -1.4592222 -0.5520038 0.27384156 0.49427912 1.0217428
0.08695093 0.20805828 -0.24320737 -0.017448274 -0.093448125 -0.3405313 -0.3234292 0.09388491
0.10602446 0.8790206 -1.13399 -1.1764348 0.49542648 1.2227912 0.47235385 1.2595555
-1.1862068 1.6800135 0.39682606 1.3119377 0.7212809 -0.111825734 -0.63969725 0.004711733
00000000: cf2e 6e3f f15d f73f a810 673f e9a9 803e
00000010: a25f 21bf 6b63 8b3d 031f 4bbf 996e 023e
00000020: 2be0 e33e 4fb1 31bf 9d7a 8ebf e8ec 403f
00000030: 53a0 e73f 9925 7f3f 7d7f 103e 2556 943f
00000040: 130c bf3f 07ba e2be d3ed 7b3f 1cb9 933f
00000050: 598a d13f 8a62 79bf 4c05 ba3f 91f4 8fbe
00000060: 1422 66bf e3e3 bc3e c0d2 053f 5afa 9a3f
00000070: 1ec6 a33f c74f d43f adf8 19bf 4069 8a3f
00000080: c41b 273f 9375 853f 946d 303d cbc7 babf
00000090: 1f50 0dbf f634 8c3e 2712 fd3e 78c8 823f
000000a0: 5413 b23d 3b0d 553e 5a0b 79be afef 8ebc
000000b0: bb61 bfbd 1e5a aebe 8398 a5be bb46 c03d
000000c0: 5a23 d93d 7e07 613f 9626 91bf 6a95 96bf
000000d0: 8aa8 fd3e 6c84 9c3f 5dd8 f13e 1d39 a13f
000000e0: a0d5 97bf af0a d73f c92c cb3e 93ed a73f
000000f0: dda5 383f e404 e5bd 33c3 23bf e264 9a3b

l2.bias f4 [8]
0.521445 0.5734591 0.5742829 0.7340216 0.40114465 -0.30575556 0.20052235 0.3309016
00000000: 6b7d 053f 37ce 123f 3404 133f d7e8 3b3f
00000010: d562 cd3e fe8b 9cbe bb55 4d3e ef6b a93e

l3.weight f4 [10, 8]
-1.0083803 0.5930925 -1.3869133 0.4735921 0.26421002 -0.35858133 0.7628289 -1.8135527
0.48539448 -0.09305891 -0.9611153 -0.4282213 0.76092803 -0.23977609 0.56575567 -0.62201375
-0.6890507 0.6116244 -1.2839092 0.5413088 -0.8860442 -0.2496504 0.014057348 0.71998346
0.036269516 -1.5626775 0.4911592 -0.28524554 0.7227815 0.010342047 -1.4125865 -1.178639
-1.2250254 0.31620368 0.75178635 -1.003645 -1.4580266 0.2689697 -1.5987598 -1.0061221
-0.03724237 0.54234457 -0.06381538 0.18738309 -1.5943233 -0.22014683 -2.108176 -0.0017164577
-1.0460542 0.30279997 0.13511756 -1.8387089 0.68214506 0.042495735 0.40040857 -0.6623851
-2.436788 0.59737414 0.015572167 -0.08160266 -0.085016765 0.3039238 0.23835637 -0.8639761
0.6080078 -1.2815777 -2.0277238 0.33186725 0.1336422 0.036542848 0.013456083 0.64664817
0.40267003 -1.6195561 -0.18655716 0.22241972 -1.3202586 -0.10774159 -1.0487396 0.81945175
00000000: 9b12 81bf e9d4 173f 6086 b1bf aa7a f23e
00000010: 8946 873e f997 b7be c148 433f 7f22 e8bf
00000020: a085 f83e ab95 bebd a70b 76bf d23f dbbe
00000030: 2ecc 423f dd87 75be 5dd5 103f 4b3c 1fbf
00000040: a065 30bf 6b93 1c3f 2357 a4bf 3793 0a3f
00000050: cbd3 62bf 5ba4 7fbe ca50 663c d650 383f
00000060: 588f 143d d105 c8bf 3879 fb3e b40b 92be
00000070: 3508 393f b071 293c a2cf b4bf a5dd 96bf
00000080: a2cd 9cbf 73e5 a13e 1275 403f 7077 80bf
00000090: 9ea0 babf 66b6 893e 29a4 ccbf 9cc8 80bf
000000a0: 758b 18bd 18d7 0a3f a3b1 82bd 5ae1 3f3e
000000b0: c912 ccbf 2c6e 61be 5bec 06c0 c3fa e0ba
000000c0: 1be5 85bf 9908 9b3e 425c 0a3e d05a ebbf
000000d0: 0fa1 2e3f 0210 2e3d 5a02 cd3e 1292 29bf
000000e0: 56f4 1bc0 83ed 183f 6722 7f3c 4c1f a7bd
000000f0: 451d aebd e69b 9b3e b113 743e 8a2d 5dbf
00000100: 66a6 1b3f bd0a a4bf 3ac6 01c0 81ea a93e
00000110: 80d9 083e f4ad 153d e776 5c3c bc8a 253f
00000120: c42a ce3e 9d4d cfbf d708 3fbe ffc1 633e
00000130: 3cfe a8bf 9fa7 dcbd 193d 86bf 97c7 513f

l3.bias f4 [10]
0.13578013 -0.090109564 -0.041075192 0.37513414 0.077506855 0.31710264 -0.14973722 0.3651704
0.36018875 0.048314657
00000000: f209 0b3e 5d8b b8bd 763e 28bd 9511 c03e
00000010: eabb 9e3d 475b a23e b754 19be 9df7 ba3e
00000020: a96a b83e 97e5 453d
