data.pth (torch, 5866 bytes, 6 tensors)

l1.weight f4 [8, 62]
0.4268693 0.53150445 0.21624501 0.40622327 -0.09147356 0.29733494 0.22061509 -0.20687316
0.04524226 0.39334083 -0.027304906 -0.073107615 -0.6741307 0.29884052 0.18714115 0.421373
0.3485459 0.39675042 -0.4402107 0.034721926 0.30381352 0.43741056 0.68456346 0.5950262
0.5029053 0.24840719 0.5366116 -0.1943546 0.3722738 -0.06897243 -0.33250496 0.28731567
0.4004286 0.095664494 0.6881686 0.28040862 0.051935654 -0.3132315 0.3224587 -0.89362687
-0.6268915 0.857148 0.15034704 -0.45821655 0.025056766 -0.28971025 -0.18639934 0.0932576
1.1067116 0.57241535 -0.5440913 0.4126779 0.27605757 -0.2514974 -0.31913134 -0.62255496
0.08004917 0.25625092 0.36462298 -0.4785855 -0.10690953 0.5280159 0.103421316 0.20044413
0.14962912 0.22046545 0.093108125 0.23749712 0.49727002 -0.1511757 0.15859371 -0.045440737
0.23543137 0.10162052 -0.58115447 0.47454613 -0.33163172 0.28168434 0.29396272 -0.017750924
-0.42639372 -0.109403 0.48170534 0.38957563 0.24357824 0.58880913 0.67392915 0.39633128
-0.26515937 -0.092674404 0.37615913 0.004310026 -0.12266363 -0.0043468736 0.39264926 -0.015613794
1.1317366 0.4467739 0.38780943 -0.6477429 0.3342626 1.6206875 -0.3937271 -0.8193577
0.1823968 -0.62022203 -1.0556442 -0.8546691 0.16737513 -0.053426966 0.52695715 0.23649174
-0.5829525 0.51713103 -0.027965073 0.03561014 -0.0037611437 -0.4280427 0.09132663 -0.10846208
-0.047608055 0.088100165 0.08238878 0.52440965 0.37204143 0.16017213 -0.14901009 -0.30741647
0.318258 -0.20387152 -0.32510334 0.6217386 0.24425514 -0.03651242 0.22123659 0.17817773
-0.15830904 -0.30741072 0.18580434 -0.3076623 -0.3077229 -0.1460772 -0.19112177 0.64539707
-0.09828337 -0.40596038 0.4639252 -0.4058925 -0.4058892 -0.28695393 -0.12519486 0.42327064
-0.09318894 0.13363163 0.5606016 -0.002381054 0.07148609 0.34597957 1.0754209 -0.30782095
-0.058466345 0.5547742 -0.15873565 -1.4925755 -0.3413384 0.20629576 0.31351775 -0.2303788
-0.9266513 -0.32157207 0.14205638 0.46436927 1.0145466 0.42995456 0.32689223 -0.10879322
-0.093331754 0.52190477 0.55725354 -0.81492364 0.3740633 -0.0044702427 -0.011195501 0.23989855
0.45830292 0.2125216 -0.09993925 0.037018098 0.17176291 0.46606937 -0.16270193 0.28202835
0.39282015 -0.14055625 0.2627026 0.12513432 0.35983914 0.15625076 -0.6542734 0.39647835
-0.076607406 0.305988 0.27909675 -0.06736149 -0.11325946 -0.09000482 0.57587975 0.6768626
0.25816154 0.40898737 0.41749975 0.19523801 -0.14989522 -0.16739406 0.17340748 0.32588604
0.30020195 -0.11082156 0.31717646 0.04741774 0.8455221 0.3454974 0.56229967 -0.12944967
0.22102651 1.5237949 -0.47144255 -0.7680652 0.19429763 -0.633656 0.7690434 0.3281465
0.18175623 0.069622315 0.1423659 0.3117241 -0.06242883 0.26806805 0.0075414404 0.52602756
-0.06035553 -0.32519624 -0.22291572 -0.10416683 0.03188996 -0.07093977 -0.17671396 0.28184044
0.17687361 0.45352894 -0.48421884 -0.72987854 0.24567457 -0.23814365 -0.5497856 0.09387006
00000000: 9d8e da3e ad10 083f 556f 5d3e 7ffc cf3e
00000010: 7d56 bbbd 493c 983e ece8 613e 8fd6 53be
00000020: f34f 393d f863 c93e 8aae dfbc 72b9 95bd
00000030: d493 2cbf a001 993e eea1 3f3e 34be d73e
00000040: 9c74 b23e df22 cb3e 4c63 e1be 9438 0e3d
00000050: 728d 9b3e 47f4 df3e 8d3f 2f3f a353 183f
00000060: 67be 003f 745e 7e3e 615f 093f e404 47be
00000070: ac9a be3e 6b41 8dbd 173e aabe 0a1b 933e
00000080: fa04 cd3e bfeb c33d d12b 303f b891 8f3e
00000090: 7bba 543d e15f a0be 4f19 a53e bbc4 64bf
000000a0: f67b 20bf 0d6e 5b3f 93f4 193e 5c9b eabe
000000b0: d943 cd3c e754 94be 78df 3ebe d7fd be3d
000000c0: baa8 8d3f d089 123f 9149 0bbf 854a d33e
000000d0: 6b57 8d3e 44c4 80be 2f65 a3be c35f 1fbf
000000e0: d2f0 a33d 5233 833e ddaf ba3e 2909 f5be
000000f0: 62f3 dabd 0d2c 073f 8ece d33d 3a41 4d3e
00000100: 6038 193e b2c1 613e 79af be3d 7232 733e
00000110: 2d9a fe3e cdcd 1abe 6466 223e 1120 3abd
00000120: ec14 713e 6b1e d03d 8ac6 14bf b6f7 f23e
00000130: a2cb a9be ee38 903e 4882 963e 636a 91bc
00000140: 4750 dabe ae0e e0bd 15a2 f63e 7576 c73e
00000150: 936c 793e 32bc 163f 9f86 2c3f efeb ca3e
00000160: f8c2 87be 14cc bdbd ee97 c03e 1e3b 8d3b
00000170: 1237 fbbd 3870 8ebb 5309 c93e 00d1 7fbc
00000180: bfdc 903f 8cbf e43e f58e c63e 7bd2 25bf
00000190: 7824 ab3e b072 cf3f 9996 c9be 6dc1 51bf
000001a0: 3ac6 3a3e dfc6 1ebf 591f 87bf 98cb 5abf
000001b0: 6364 2b3e 3cd6 5abd aae6 063f e42a 723e
000001c0: 603c 15bf b362 043f 0217 e5bc f0db 113d
000001d0: 857d 76bb 6a28 dbbe 7509 bb3d 5e21 debd
000001e0: aa00 43bd dc6d b43d 73bb a83d b63f 063f
000001f0: 377c be3e 2a04 243e 1a96 18be b165 9dbe
00000200: b6f2 a23e b2c3 50be f273 a6be 432a 1f3f
00000210: 051e 7a3e 0c8e 15bd d88b 623e 3974 363e
00000220: c41b 22be f064 9dbe 7e43 3e3e ea85 9dbe
00000230: db8d 9dbe 4395 15be 6db5 43be be38 253f
00000240: cb48 c9bd 0ada cfbe 9b87 ed3e 24d1 cfbe
00000250: b6d0 cfbe a0eb 92be 1533 00be eeb6 d83e
00000260: d8d9 bebd bbd6 083e 9683 0f3f 750b 1cbb
00000270: 4d67 923d 3c24 b13e 64a7 893f b59a 9dbe
00000280: 687a 6fbd af05 0e3f 998b 22be b70c bfbf
00000290: e8c3 aebe 323f 533e 6685 a03e 6ce8 6bbe
000002a0: 0539 6dbf 18a5 a4be 3a77 113e cfc1 ed3e
000002b0: aadc 813f 0123 dc3e 6b5e a73e fbce debd
000002c0: b824 bfbd 8d9b 053f 2ba8 0e3f d69e 50bf
000002d0: 3a85 bf3e 1d7b 92bb 566d 37bc f7a7 753e
000002e0: aea6 ea3e 439f 593e f3ac ccbd 4aa0 173d
000002f0: 9ee2 2f3e a5a0 ee3e 569b 26be 0566 903e
00000300: b91f c93e faed 0fbe f580 863e 3623 003e
00000310: d63c b83e 3300 203e 767e 27bf 36ff ca3e
00000320: 58e4 9cbd 76aa 9c3e c5e5 8e3e d2f4 89bd
00000330: 93f4 e7bd 7254 b8bd db6c 133f de46 2d3f
00000340: c02d 843e cb66 d13e 87c2 d53e 79ec 473e
00000350: 227e 19be 5969 2bbe bb91 313e 89da a63e
00000360: 12b4 993e 6af6 e2bd f464 a23e 1b39 423d
00000370: 2374 583f 09e5 b03e dff2 0f3f 748e 04be
00000380: c654 623e b60b c33f eb60 f1be ec9f 44bf
00000390: f5f5 463e 4837 22bf 07e0 443f d102 a83e
000003a0: 4e1e 3a3e 2596 8e3d 5ec8 113e 4d9a 9f3e
000003b0: 5fb5 7fbd 3740 893e 301e f73b bea9 063f
000003c0: 5c37 77bd 1f80 a6be 0544 64be 6b55 d5bd
000003d0: 0c9f 023d df48 91bd 81f4 34be 644d 903e
000003e0: 5b1e 353e f234 e83e 88eb f7be 52d9 3abf
000003f0: 1d92 7b3e eedb 73be c0be 0cbf f23e c03d

l1.bias f4 [8]
1.183766 0.9287821 0.4058647 0.85811275 0.91036546 0.6932258 -0.12904945 0.53479654
00000000: a585 973f aac4 6d3f 7fcd cf3e 47ad 5b3f
00000010: b60d 693f 3f77 313f 8a25 04be 6de8 083f

l2.weight f4 [8, 8]
1.6043503 1.5172869 0.81807226 0.84029335 1.3615543 -0.7486376 -0.26931563 -0.8839039
0.9772633 -0.038783588 0.604765 -0.7619097 0.87392557 -1.3354785 0.26281574 -0.60844374
-0.46940413 1.2601371 -1.7011789 1.4241385 -0.16800983 1.7552258 -0.31242302 0.17893362
-0.22096135 0.12946282 0.21703956 -0.21004766 -0.057468362 0.22548677 0.021557152 -0.26156753
0.95419216 1.2107729 0.019029662 1.9382093 -1.1818566 0.03562991 0.26840627 0.87501794
-0.78131163 0.062332276 1.4517887 0.07731474 0.8782152 0.8066236 -0.008745134 1.3785169
-0.29786557 0.06617227 -0.067783356 0.16040966 0.13407746 -0.085820556 0.018720984 -0.079401284
0.37580064 -1.527595 0.110455945 -0.28752047 1.7892842 1.4701092 -0.21223627 0.29843983
00000000: 5a5b cd3f 7536 c23f 2f6d 513f 771d 573f
00000010: 6947 ae3f b7a6 3fbf bde3 89be 8747 62bf
00000020: ed2d 7a3f 8adb 1ebd e1d1 1a3f 840c 43bf
00000030: 96b9 5f3f f6f0 aabf c98f 863e f8c2 1bbf
00000040: bd55 f0be 2c4c a13f 3bc0 d9bf 2c4a b63f
00000050: c50a 2cbe 3dab e03f e9f5 9fbe 603a 373e
00000060: b143 62be e791 043e 9e3f 5e3e bc16 57be
00000070: f263 6bbd 01e6 663e a098 b03c 2eec 85be
00000080: f045 743f 9bfa 9a3f 18e4 9b3c 3e17 f83f
00000090: 1447 97bf abf0 113d 8c6c 893e 2d01 603f
000000a0: 0a04 48bf 2150 7f3d 36d4 b93f 3157 9e3d
000000b0: b6d2 603f e27e 4e3f c047 0fbc 3e73 b03f
000000c0: d681 98be 5485 873d 00d2 8abd 6e42 243e
000000d0: 9a4b 093e b0c2 afbd c05c 993c 249d a2bd
000000e0: f168 c03e 3c88 c3bf ba36 e23d e235 93be
000000f0: 4407 e53f 8a2c bc3f 7754 59be 1bcd 983e

l2.bias f4 [8]
0.87789065 0.1869297 0.60338414 -0.11250103 0.84572273 0.32257217 -0.15883806 0.4628554
00000000: 71bd 603f 806a 3f3e 6277 1a3f f166 e6bd
00000010: 4981 583f 2e28 a53e 72a6 22be 62fb ec3e

l3.weight f4 [9, 8]
0.09825392 0.9308125 -1.1863679 0.2925928 -1.4731023 -0.6140585 -0.010171473 0.65114325
0.2983743 -1.3887182 0.10188036 0.018668178 -0.62786615 -0.16291828 0.22369227 0.29707292
0.35334876 -1.520095 0.575915 -0.24924621 0.6400654 -1.9015547 0.30798933 -1.5931932
-0.7813364 -0.8695651 -1.8691214 0.1937976 -0.46231267 0.91884845 0.102507204 0.2778014
-0.19960631 -1.1588086 -0.7173707 0.06353317 0.5265938 0.38986748 0.18925777 -1.6246487
-1.1868982 -0.24670304 0.8325904 0.1687816 0.44764653 -0.16432993 -0.20519151 -1.195755
-2.159238 -0.35836205 -0.007906397 0.27813563 0.3892643 0.0816841 0.107183725 0.42355257
0.4489115 0.4765384 -1.1809229 0.025050076 0.31802508 -1.0930097 -0.036858857 -0.49311545
-1.3714362 -0.44178534 0.09845298 0.28656375 -1.6706837 0.27081272 -0.011564344 0.9423794
00000000: 5a39 c93d ba49 6e3f e7da 97bf b9ce 953e
00000010: 9e8e bcbf f032 1dbf 40a6 26bc 53b1 263f
00000020: 84c4 983e 85c1 b1bf a6a6 d03d 02ee 983c
00000030: d6bb 20bf 0dd4 26be 960f 653e f119 983e
00000040: 21ea b43e 7992 c2bf 2a6f 133f 663a 7fbe
00000050: 53db 233f 2566 f3bf c7b0 9d3e c1ed cbbf
00000060: aa05 48bf d29b 5ebf 5f3f efbf e172 463e
00000070: 3fb4 ecbe a739 6b3f 4cef d13d fc3b 8e3e
00000080: 9965 4cbe d753 94bf 9ba5 37bf ae1d 823d
00000090: dace 063f b69c c73e cacc 413e 7df4 cfbf
000000a0: 48ec 97bf b99f 7cbe a524 553f 15d5 2c3e
000000b0: ed31 e53e 1b46 28be b91d 52be 800e 99bf
000000c0: f530 0ac0 3b7b b7be d589 01bc cb67 8e3e
000000d0: a64d c73e fe49 a73d 2483 db3d e2db d83e
000000e0: bad7 e53e d7fc f33e 7b28 97bf d135 cd3c
000000f0: 2fd4 a23e bee7 8bbf 50f9 16bd a179 fcbe
00000100: 398b afbf b031 e2be b7a1 c93d 7cb8 923e
00000110: f7d8 d5bf f7a7 8a3e 6078 3dbc c73f 713f

l3.bias f4 [9]
0.20747723 -0.22974645 -0.02378026 0.20860979 -0.13733302 -0.4419611 0.32015267 -0.21528785
-0.20352487
00000000: e974 543e a742 6bbe d2ce c2bc ce9d 553e
00000010: 07a1 0cbe ba48 e2be 0deb a33e 6b74 5cbe
00000020: d368 50be
